…
 0, 0, 0, 0, 0, 0, 1, 0, 0, 0, 0, 0, 0, 0, 0, 0, 0, 0, 0, 0, 0, 0, 0.5, 0]
2020-11-08 16:45:59 - STARTING None TRAINING VERSION 0.2 JOB AT 20 EPOCHS FOR  DATA SET
2020-11-08 16:45:59 - Number of model params: 226539
2020-11-08 16:45:59 - TransformerEncoder(
  (pos_encoder): PositionalEncoding(
    (dropout): Dropout(p=0.1, inplace=False)
  )
  (transformer_encoder): TransformerEncoder(
    (layers): ModuleList(
      (0): TransformerEncoderLayer(
        (self_attn): MultiheadAttention(
          (out_proj): _LinearWithBias(in_features=78, out_features=78, bias=True)
        )
        (linear1): Linear(in_features=78, out_features=128, bias=True)
        (dropout): Dropout(p=0.1, inplace=False)
        (linear2): Linear(in_features=128, out_features=78, bias=True)
        (norm1): LayerNorm((78,), eps=1e-05, elementwise_affine=True)
        (norm2): LayerNorm((78,), eps=1e-05, elementwise_affine=True)
        (dropout1): Dropout(p=0.1, inplace=False)
        (dropout2): Dropout(p=0.1, inplace=False)
      )
      (1): TransformerEncoderLayer(
        (self_attn): MultiheadAttention(
          (out_proj): _LinearWithBias(in_features=78, out_features=78, bias=True)
        )
        (linear1): Linear(in_features=78, out_features=128, bias=True)
        (dropout): Dropout(p=0.1, inplace=False)
        (linear2): Linear(in_features=128, out_features=78, bias=True)
        (norm1): LayerNorm((78,), eps=1e-05, elementwise_affine=True)
        (norm2): LayerNorm((78,), eps=1e-05, elementwise_affine=True)
        (dropout1): Dropout(p=0.1, inplace=False)
        (dropout2): Dropout(p=0.1, inplace=False)
      )
      (2): TransformerEncoderLayer(
        (self_attn): MultiheadAttention(
          (out_proj): _LinearWithBias(in_features=78, out_features=78, bias=True)
        )
        (linear1): Linear(in_features=78, out_features=128, bias=True)
        (dropout): Dropout(p=0.1, inplace=False)
        (linear2): Linear(in_features=128, out_features=78, bias=True)
        (norm1): LayerNorm((78,), eps=1e-05, elementwise_affine=True)
        (norm2): LayerNorm((78,), eps=1e-05, elementwise_affine=True)
        (dropout1): Dropout(p=0.1, inplace=False)
        (dropout2): Dropout(p=0.1, inplace=False)
      )
      (3): TransformerEncoderLayer(
        (self_attn): MultiheadAttention(
          (out_proj): _LinearWithBias(in_features=78, out_features=78, bias=True)
        )
        (linear1): Linear(in_features=78, out_features=128, bias=True)
        (dropout): Dropout(p=0.1, inplace=False)
        (linear2): Linear(in_features=128, out_features=78, bias=True)
        (norm1): LayerNorm((78,), eps=1e-05, elementwise_affine=True)
        (norm2): LayerNorm((78,), eps=1e-05, elementwise_affine=True)
        (dropout1): Dropout(p=0.1, inplace=False)
        (dropout2): Dropout(p=0.1, inplace=False)
      )
      (4): TransformerEncoderLayer(
        (self_attn): MultiheadAttention(
          (out_proj): _LinearWithBias(in_features=78, out_features=78, bias=True)
        )
        (linear1): Linear(in_features=78, out_features=128, bias=True)
        (dropout): Dropout(p=0.1, inplace=False)
        (linear2): Linear(in_features=128, out_features=78, bias=True)
        (norm1): LayerNorm((78,), eps=1e-05, elementwise_affine=True)
        (norm2): LayerNorm((78,), eps=1e-05, elementwise_affine=True)
        (dropout1): Dropout(p=0.1, inplace=False)
        (dropout2): Dropout(p=0.1, inplace=False)
      )
    )
  )
  (decoder): Linear(in_features=78, out_features=11, bias=True)
)
2020-11-08 16:45:59 - Training Epoch 1
2020-11-08 16:45:59 - 
2020-11-08 16:46:05 - Training Loss
2020-11-08 16:46:05 - Total Loss: 1.0103076929981645
2020-11-08 16:46:05 - 	tempo: 0.5709 vel: 0.7214 dev: 0.7559 articul: 0.9729 pedal: 1.156 trill: 0.0 kld: nan 
2020-11-08 16:46:05 - 
2020-11-08 16:46:05 - Validation loss
2020-11-08 16:46:05 - Total Loss: 1.620125373204549
…
