…
 0, 0, 0, 0, 0, 0, 0, 0, 0, 0, 0, 0, 0, 0, 0, 0, 0, 0, 0, 0, 0, 0, 0.5, 0]
2020-11-08 17:12:07 - STARTING None TRAINING VERSION 0.2 JOB AT 30 EPOCHS FOR  DATA SET
2020-11-08 17:12:08 - Number of model params: 226539
2020-11-08 17:12:08 - TransformerEncoder(
  (pos_encoder): PositionalEncoding(
    (dropout): Dropout(p=0.1, inplace=False)
  )
  (transformer_encoder): TransformerEncoder(
    (layers): ModuleList(
      (0): TransformerEncoderLayer(
        (self_attn): MultiheadAttention(
          (out_proj): _LinearWithBias(in_features=78, out_features=78, bias=True)
        )
        (linear1): Linear(in_features=78, out_features=128, bias=True)
        (dropout): Dropout(p=0.1, inplace=False)
        (linear2): Linear(in_features=128, out_features=78, bias=True)
        (norm1): LayerNorm((78,), eps=1e-05, elementwise_affine=True)
        (norm2): LayerNorm((78,), eps=1e-05, elementwise_affine=True)
        (dropout1): Dropout(p=0.1, inplace=False)
        (dropout2): Dropout(p=0.1, inplace=False)
      )
      (1): TransformerEncoderLayer(
        (self_attn): MultiheadAttention(
          (out_proj): _LinearWithBias(in_features=78, out_features=78, bias=True)
        )
        (linear1): Linear(in_features=78, out_features=128, bias=True)
        (dropout): Dropout(p=0.1, inplace=False)
        (linear2): Linear(in_features=128, out_features=78, bias=True)
        (norm1): LayerNorm((78,), eps=1e-05, elementwise_affine=True)
        (norm2): LayerNorm((78,), eps=1e-05, elementwise_affine=True)
        (dropout1): Dropout(p=0.1, inplace=False)
        (dropout2): Dropout(p=0.1, inplace=False)
      )
      (2): TransformerEncoderLayer(
        (self_attn): MultiheadAttention(
          (out_proj): _LinearWithBias(in_features=78, out_features=78, bias=True)
        )
        (linear1): Linear(in_features=78, out_features=128, bias=True)
        (dropout): Dropout(p=0.1, inplace=False)
        (linear2): Linear(in_features=128, out_features=78, bias=True)
        (norm1): LayerNorm((78,), eps=1e-05, elementwise_affine=True)
        (norm2): LayerNorm((78,), eps=1e-05, elementwise_affine=True)
        (dropout1): Dropout(p=0.1, inplace=False)
        (dropout2): Dropout(p=0.1, inplace=False)
      )
      (3): TransformerEncoderLayer(
        (self_attn): MultiheadAttention(
          (out_proj): _LinearWithBias(in_features=78, out_features=78, bias=True)
        )
        (linear1): Linear(in_features=78, out_features=128, bias=True)
        (dropout): Dropout(p=0.1, inplace=False)
        (linear2): Linear(in_features=128, out_features=78, bias=True)
        (norm1): LayerNorm((78,), eps=1e-05, elementwise_affine=True)
        (norm2): LayerNorm((78,), eps=1e-05, elementwise_affine=True)
        (dropout1): Dropout(p=0.1, inplace=False)
        (dropout2): Dropout(p=0.1, inplace=False)
      )
      (4): TransformerEncoderLayer(
        (self_attn): MultiheadAttention(
          (out_proj): _LinearWithBias(in_features=78, out_features=78, bias=True)
        )
        (linear1): Linear(in_features=78, out_features=128, bias=True)
        (dropout): Dropout(p=0.1, inplace=False)
        (linear2): Linear(in_features=128, out_features=78, bias=True)
        (norm1): LayerNorm((78,), eps=1e-05, elementwise_affine=True)
        (norm2): LayerNorm((78,), eps=1e-05, elementwise_affine=True)
        (dropout1): Dropout(p=0.1, inplace=False)
        (dropout2): Dropout(p=0.1, inplace=False)
      )
    )
  )
  (decoder): Linear(in_features=78, out_features=11, bias=True)
)
2020-11-08 17:12:08 - Training Epoch 1
2020-11-08 17:12:08 - 
2020-11-08 17:25:16 - Training Loss
2020-11-08 17:25:16 - Total Loss: 0.9497611191075006
2020-11-08 17:25:16 - 	tempo: 0.5283 vel: 0.7104 dev: 1.687 articul: 0.9769 pedal: 0.935 trill: 0.0 kld: nan 
2020-11-08 17:25:16 - 
2020-11-08 17:25:25 - Validation loss
2020-11-08 17:25:25 - Total Loss: 0.7906533459172602
…
