…
AttributeError: 'TransformerEncoderJob' object has no attribute 'parameters'
2020-11-07 23:14:03 - STARTING TRANSFORMER ENCODER ONLY TRAINING VERSION 0.2 JOB AT 30 EPOCHS FOR DEV DATA SET
2020-11-07 23:14:03 - Number of model params: 226539
2020-11-07 23:14:03 - TransformerEncoder(
  (pos_encoder): PositionalEncoding(
    (dropout): Dropout(p=0.1, inplace=False)
  )
  (transformer_encoder): TransformerEncoder(
    (layers): ModuleList(
      (0): TransformerEncoderLayer(
        (self_attn): MultiheadAttention(
          (out_proj): _LinearWithBias(in_features=78, out_features=78, bias=True)
        )
        (linear1): Linear(in_features=78, out_features=128, bias=True)
        (dropout): Dropout(p=0.1, inplace=False)
        (linear2): Linear(in_features=128, out_features=78, bias=True)
        (norm1): LayerNorm((78,), eps=1e-05, elementwise_affine=True)
        (norm2): LayerNorm((78,), eps=1e-05, elementwise_affine=True)
        (dropout1): Dropout(p=0.1, inplace=False)
        (dropout2): Dropout(p=0.1, inplace=False)
      )
      (1): TransformerEncoderLayer(
        (self_attn): MultiheadAttention(
          (out_proj): _LinearWithBias(in_features=78, out_features=78, bias=True)
        )
        (linear1): Linear(in_features=78, out_features=128, bias=True)
        (dropout): Dropout(p=0.1, inplace=False)
        (linear2): Linear(in_features=128, out_features=78, bias=True)
        (norm1): LayerNorm((78,), eps=1e-05, elementwise_affine=True)
        (norm2): LayerNorm((78,), eps=1e-05, elementwise_affine=True)
        (dropout1): Dropout(p=0.1, inplace=False)
        (dropout2): Dropout(p=0.1, inplace=False)
      )
      (2): TransformerEncoderLayer(
        (self_attn): MultiheadAttention(
          (out_proj): _LinearWithBias(in_features=78, out_features=78, bias=True)
        )
        (linear1): Linear(in_features=78, out_features=128, bias=True)
        (dropout): Dropout(p=0.1, inplace=False)
        (linear2): Linear(in_features=128, out_features=78, bias=True)
        (norm1): LayerNorm((78,), eps=1e-05, elementwise_affine=True)
        (norm2): LayerNorm((78,), eps=1e-05, elementwise_affine=True)
        (dropout1): Dropout(p=0.1, inplace=False)
        (dropout2): Dropout(p=0.1, inplace=False)
      )
      (3): TransformerEncoderLayer(
        (self_attn): MultiheadAttention(
          (out_proj): _LinearWithBias(in_features=78, out_features=78, bias=True)
        )
        (linear1): Linear(in_features=78, out_features=128, bias=True)
        (dropout): Dropout(p=0.1, inplace=False)
        (linear2): Linear(in_features=128, out_features=78, bias=True)
        (norm1): LayerNorm((78,), eps=1e-05, elementwise_affine=True)
        (norm2): LayerNorm((78,), eps=1e-05, elementwise_affine=True)
        (dropout1): Dropout(p=0.1, inplace=False)
        (dropout2): Dropout(p=0.1, inplace=False)
      )
      (4): TransformerEncoderLayer(
        (self_attn): MultiheadAttention(
          (out_proj): _LinearWithBias(in_features=78, out_features=78, bias=True)
        )
        (linear1): Linear(in_features=78, out_features=128, bias=True)
        (dropout): Dropout(p=0.1, inplace=False)
        (linear2): Linear(in_features=128, out_features=78, bias=True)
        (norm1): LayerNorm((78,), eps=1e-05, elementwise_affine=True)
        (norm2): LayerNorm((78,), eps=1e-05, elementwise_affine=True)
        (dropout1): Dropout(p=0.1, inplace=False)
        (dropout2): Dropout(p=0.1, inplace=False)
      )
    )
  )
  (decoder): Linear(in_features=78, out_features=11, bias=True)
)
2020-11-07 23:14:03 - Training Epoch 1
2020-11-07 23:14:03 - 
2020-11-07 23:14:08 - Training Loss
2020-11-07 23:14:08 - Total Loss: 0.8412571661174297
2020-11-07 23:14:08 - 	tempo: 0.2052 vel: 0.5917 dev: 0.7301 articul: 0.9226 pedal: 0.972 trill: 0.0 kld: nan 
2020-11-07 23:14:08 - 
2020-11-07 23:14:08 - Validation loss
2020-11-07 23:14:08 - Total Loss: 1.6479655504226685
…
